…
        }
      },
      "source": [
        "model = BertModel.from_pretrained('bert-base-uncased')\n",
        "model.eval()"
      ],
      "execution_count": 0,
      "outputs": [
        {
          "output_type": "stream",
          "text": [
            "100%|██████████| 407873900/407873900 [00:05<00:00, 75118229.04B/s]\n"
          ],
          "name": "stderr"
        },
        {
          "output_type": "execute_result",
          "data": {
            "text/plain": [
              "BertModel(\n",
              "  (embeddings): BertEmbeddings(\n",
              "    (word_embeddings): Embedding(30522, 768, padding_idx=0)\n",
              "    (position_embeddings): Embedding(512, 768)\n",
              "    (token_type_embeddings): Embedding(2, 768)\n",
              "    (LayerNorm): BertLayerNorm()\n",
              "    (dropout): Dropout(p=0.1, inplace=False)\n",
              "  )\n",
              "  (encoder): BertEncoder(\n",
              "    (layer): ModuleList(\n",
              "      (0): BertLayer(\n",
              "        (attention): BertAttention(\n",
              "          (self): BertSelfAttention(\n",
              "            (query): Linear(in_features=768, out_features=768, bias=True)\n",
              "            (key): Linear(in_features=768, out_features=768, bias=True)\n",
              "            (value): Linear(in_features=768, out_features=768, bias=True)\n",
              "            (dropout): Dropout(p=0.1, inplace=False)\n",
              "          )\n",
              "          (output): BertSelfOutput(\n",
              "            (dense): Linear(in_features=768, out_features=768, bias=True)\n",
              "            (LayerNorm): BertLayerNorm()\n",
              "            (dropout): Dropout(p=0.1, inplace=False)\n",
              "          )\n",
              "        )\n",
              "        (intermediate): BertIntermediate(\n",
              "          (dense): Linear(in_features=768, out_features=3072, bias=True)\n",
              "        )\n",
              "        (output): BertOutput(\n",
              "          (dense): Linear(in_features=3072, out_features=768, bias=True)\n",
              "          (LayerNorm): BertLayerNorm()\n",
              "          (dropout): Dropout(p=0.1, inplace=False)\n",
              "        )\n",
              "      )\n",
              "      (1): BertLayer(\n",
              "        (attention): BertAttention(\n",
              "          (self): BertSelfAttention(\n",
              "            (query): Linear(in_features=768, out_features=768, bias=True)\n",
              "            (key): Linear(in_features=768, out_features=768, bias=True)\n",
              "            (value): Linear(in_features=768, out_features=768, bias=True)\n",
              "            (dropout): Dropout(p=0.1, inplace=False)\n",
              "          )\n",
              "          (output): BertSelfOutput(\n",
              "            (dense): Linear(in_features=768, out_features=768, bias=True)\n",
              "            (LayerNorm): BertLayerNorm()\n",
              "            (dropout): Dropout(p=0.1, inplace=False)\n",
              "          )\n",
              "        )\n",
              "        (intermediate): BertIntermediate(\n",
              "          (dense): Linear(in_features=768, out_features=3072, bias=True)\n",
              "        )\n",
              "        (output): BertOutput(\n",
              "          (dense): Linear(in_features=3072, out_features=768, bias=True)\n",
              "          (LayerNorm): BertLayerNorm()\n",
              "          (dropout): Dropout(p=0.1, inplace=False)\n",
              "        )\n",
              "      )\n",
              "      (2): BertLayer(\n",
              "        (attention): BertAttention(\n",
              "          (self): BertSelfAttention(\n",
              "            (query): Linear(in_features=768, out_features=768, bias=True)\n",
              "            (key): Linear(in_features=768, out_features=768, bias=True)\n",
              "            (value): Linear(in_features=768, out_features=768, bias=True)\n",
              "            (dropout): Dropout(p=0.1, inplace=False)\n",
              "          )\n",
              "          (output): BertSelfOutput(\n",
              "            (dense): Linear(in_features=768, out_features=768, bias=True)\n",
              "            (LayerNorm): BertLayerNorm()\n",
              "            (dropout): Dropout(p=0.1, inplace=False)\n",
              "          )\n",
              "        )\n",
              "        (intermediate): BertIntermediate(\n",
              "          (dense): Linear(in_features=768, out_features=3072, bias=True)\n",
              "        )\n",
              "        (output): BertOutput(\n",
              "          (dense): Linear(in_features=3072, out_features=768, bias=True)\n",
              "          (LayerNorm): BertLayerNorm()\n",
              "          (dropout): Dropout(p=0.1, inplace=False)\n",
              "        )\n",
              "      )\n",
              "      (3): BertLayer(\n",
              "        (attention): BertAttention(\n",
              "          (self): BertSelfAttention(\n",
              "            (query): Linear(in_features=768, out_features=768, bias=True)\n",
              "            (key): Linear(in_features=768, out_features=768, bias=True)\n",
              "            (value): Linear(in_features=768, out_features=768, bias=True)\n",
              "            (dropout): Dropout(p=0.1, inplace=False)\n",
              "          )\n",
              "          (output): BertSelfOutput(\n",
              "            (dense): Linear(in_features=768, out_features=768, bias=True)\n",
              "            (LayerNorm): BertLayerNorm()\n",
              "            (dropout): Dropout(p=0.1, inplace=False)\n",
              "          )\n",
              "        )\n",
              "        (intermediate): BertIntermediate(\n",
              "          (dense): Linear(in_features=768, out_features=3072, bias=True)\n",
              "        )\n",
              "        (output): BertOutput(\n",
              "          (dense): Linear(in_features=3072, out_features=768, bias=True)\n",
              "          (LayerNorm): BertLayerNorm()\n",
              "          (dropout): Dropout(p=0.1, inplace=False)\n",
              "        )\n",
              "      )\n",
              "      (4): BertLayer(\n",
              "        (attention): BertAttention(\n",
              "          (self): BertSelfAttention(\n",
              "            (query): Linear(in_features=768, out_features=768, bias=True)\n",
              "            (key): Linear(in_features=768, out_features=768, bias=True)\n",
              "            (value): Linear(in_features=768, out_features=768, bias=True)\n",
              "            (dropout): Dropout(p=0.1, inplace=False)\n",
              "          )\n",
              "          (output): BertSelfOutput(\n",
              "            (dense): Linear(in_features=768, out_features=768, bias=True)\n",
              "            (LayerNorm): BertLayerNorm()\n",
              "            (dropout): Dropout(p=0.1, inplace=False)\n",
              "          )\n",
              "        )\n",
              "        (intermediate): BertIntermediate(\n",
              "          (dense): Linear(in_features=768, out_features=3072, bias=True)\n",
              "        )\n",
              "        (output): BertOutput(\n",
              "          (dense): Linear(in_features=3072, out_features=768, bias=True)\n",
              "          (LayerNorm): BertLayerNorm()\n",
              "          (dropout): Dropout(p=0.1, inplace=False)\n",
              "        )\n",
              "      )\n",
              "      (5): BertLayer(\n",
              "        (attention): BertAttention(\n",
              "          (self): BertSelfAttention(\n",
              "            (query): Linear(in_features=768, out_features=768, bias=True)\n",
              "            (key): Linear(in_features=768, out_features=768, bias=True)\n",
              "            (value): Linear(in_features=768, out_features=768, bias=True)\n",
              "            (dropout): Dropout(p=0.1, inplace=False)\n",
              "          )\n",
              "          (output): BertSelfOutput(\n",
              "            (dense): Linear(in_features=768, out_features=768, bias=True)\n",
              "            (LayerNorm): BertLayerNorm()\n",
              "            (dropout): Dropout(p=0.1, inplace=False)\n",
              "          )\n",
              "        )\n",
              "        (intermediate): BertIntermediate(\n",
              "          (dense): Linear(in_features=768, out_features=3072, bias=True)\n",
              "        )\n",
              "        (output): BertOutput(\n",
              "          (dense): Linear(in_features=3072, out_features=768, bias=True)\n",
              "          (LayerNorm): BertLayerNorm()\n",
              "          (dropout): Dropout(p=0.1, inplace=False)\n",
              "        )\n",
              "      )\n",
              "      (6): BertLayer(\n",
              "        (attention): BertAttention(\n",
              "          (self): BertSelfAttention(\n",
              "            (query): Linear(in_features=768, out_features=768, bias=True)\n",
              "            (key): Linear(in_features=768, out_features=768, bias=True)\n",
              "            (value): Linear(in_features=768, out_features=768, bias=True)\n",
              "            (dropout): Dropout(p=0.1, inplace=False)\n",
              "          )\n",
              "          (output): BertSelfOutput(\n",
              "            (dense): Linear(in_features=768, out_features=768, bias=True)\n",
              "            (LayerNorm): BertLayerNorm()\n",
              "            (dropout): Dropout(p=0.1, inplace=False)\n",
              "          )\n",
              "        )\n",
              "        (intermediate): BertIntermediate(\n",
              "          (dense): Linear(in_features=768, out_features=3072, bias=True)\n",
              "        )\n",
              "        (output): BertOutput(\n",
              "          (dense): Linear(in_features=3072, out_features=768, bias=True)\n",
              "          (LayerNorm): BertLayerNorm()\n",
              "          (dropout): Dropout(p=0.1, inplace=False)\n",
              "        )\n",
              "      )\n",
              "      (7): BertLayer(\n",
              "        (attention): BertAttention(\n",
              "          (self): BertSelfAttention(\n",
              "            (query): Linear(in_features=768, out_features=768, bias=True)\n",
              "            (key): Linear(in_features=768, out_features=768, bias=True)\n",
              "            (value): Linear(in_features=768, out_features=768, bias=True)\n",
              "            (dropout): Dropout(p=0.1, inplace=False)\n",
              "          )\n",
              "          (output): BertSelfOutput(\n",
              "            (dense): Linear(in_features=768, out_features=768, bias=True)\n",
              "            (LayerNorm): BertLayerNorm()\n",
              "            (dropout): Dropout(p=0.1, inplace=False)\n",
              "          )\n",
              "        )\n",
              "        (intermediate): BertIntermediate(\n",
              "          (dense): Linear(in_features=768, out_features=3072, bias=True)\n",
              "        )\n",
              "        (output): BertOutput(\n",
              "          (dense): Linear(in_features=3072, out_features=768, bias=True)\n",
              "          (LayerNorm): BertLayerNorm()\n",
              "          (dropout): Dropout(p=0.1, inplace=False)\n",
              "        )\n",
              "      )\n",
              "      (8): BertLayer(\n",
              "        (attention): BertAttention(\n",
              "          (self): BertSelfAttention(\n",
              "            (query): Linear(in_features=768, out_features=768, bias=True)\n",
              "            (key): Linear(in_features=768, out_features=768, bias=True)\n",
              "            (value): Linear(in_features=768, out_features=768, bias=True)\n",
              "            (dropout): Dropout(p=0.1, inplace=False)\n",
              "          )\n",
              "          (output): BertSelfOutput(\n",
              "            (dense): Linear(in_features=768, out_features=768, bias=True)\n",
              "            (LayerNorm): BertLayerNorm()\n",
              "            (dropout): Dropout(p=0.1, inplace=False)\n",
              "          )\n",
              "        )\n",
              "        (intermediate): BertIntermediate(\n",
              "          (dense): Linear(in_features=768, out_features=3072, bias=True)\n",
              "        )\n",
              "        (output): BertOutput(\n",
              "          (dense): Linear(in_features=3072, out_features=768, bias=True)\n",
              "          (LayerNorm): BertLayerNorm()\n",
              "          (dropout): Dropout(p=0.1, inplace=False)\n",
              "        )\n",
              "      )\n",
              "      (9): BertLayer(\n",
              "        (attention): BertAttention(\n",
              "          (self): BertSelfAttention(\n",
              "            (query): Linear(in_features=768, out_features=768, bias=True)\n",
              "            (key): Linear(in_features=768, out_features=768, bias=True)\n",
              "            (value): Linear(in_features=768, out_features=768, bias=True)\n",
              "            (dropout): Dropout(p=0.1, inplace=False)\n",
              "          )\n",
              "          (output): BertSelfOutput(\n",
              "            (dense): Linear(in_features=768, out_features=768, bias=True)\n",
              "            (LayerNorm): BertLayerNorm()\n",
              "            (dropout): Dropout(p=0.1, inplace=False)\n",
              "          )\n",
              "        )\n",
              "        (intermediate): BertIntermediate(\n",
              "          (dense): Linear(in_features=768, out_features=3072, bias=True)\n",
              "        )\n",
              "        (output): BertOutput(\n",
              "          (dense): Linear(in_features=3072, out_features=768, bias=True)\n",
              "          (LayerNorm): BertLayerNorm()\n",
              "          (dropout): Dropout(p=0.1, inplace=False)\n",
              "        )\n",
              "      )\n",
              "      (10): BertLayer(\n",
              "        (attention): BertAttention(\n",
              "          (self): BertSelfAttention(\n",
              "            (query): Linear(in_features=768, out_features=768, bias=True)\n",
              "            (key): Linear(in_features=768, out_features=768, bias=True)\n",
              "            (value): Linear(in_features=768, out_features=768, bias=True)\n",
              "            (dropout): Dropout(p=0.1, inplace=False)\n",
              "          )\n",
              "          (output): BertSelfOutput(\n",
              "            (dense): Linear(in_features=768, out_features=768, bias=True)\n",
              "            (LayerNorm): BertLayerNorm()\n",
              "            (dropout): Dropout(p=0.1, inplace=False)\n",
              "          )\n",
              "        )\n",
              "        (intermediate): BertIntermediate(\n",
              "          (dense): Linear(in_features=768, out_features=3072, bias=True)\n",
              "        )\n",
              "        (output): BertOutput(\n",
              "          (dense): Linear(in_features=3072, out_features=768, bias=True)\n",
              "          (LayerNorm): BertLayerNorm()\n",
              "          (dropout): Dropout(p=0.1, inplace=False)\n",
              "        )\n",
              "      )\n",
              "      (11): BertLayer(\n",
              "        (attention): BertAttention(\n",
              "          (self): BertSelfAttention(\n",
              "            (query): Linear(in_features=768, out_features=768, bias=True)\n",
              "            (key): Linear(in_features=768, out_features=768, bias=True)\n",
              "            (value): Linear(in_features=768, out_features=768, bias=True)\n",
              "            (dropout): Dropout(p=0.1, inplace=False)\n",
              "          )\n",
              "          (output): BertSelfOutput(\n",
              "            (dense): Linear(in_features=768, out_features=768, bias=True)\n",
              "            (LayerNorm): BertLayerNorm()\n",
              "            (dropout): Dropout(p=0.1, inplace=False)\n",
              "          )\n",
              "        )\n",
              "        (intermediate): BertIntermediate(\n",
              "          (dense): Linear(in_features=768, out_features=3072, bias=True)\n",
              "        )\n",
              "        (output): BertOutput(\n",
              "          (dense): Linear(in_features=3072, out_features=768, bias=True)\n",
              "          (LayerNorm): BertLayerNorm()\n",
              "          (dropout): Dropout(p=0.1, inplace=False)\n",
              "        )\n",
              "      )\n",
              "    )\n",
              "  )\n",
              "  (pooler): BertPooler(\n",
              "    (dense): Linear(in_features=768, out_features=768, bias=True)\n",
              "    (activation): Tanh()\n",
              "  )\n",
              ")"
            ]
          },
          "metadata": {
            "tags": []
          },
          "execution_count": 36
        }
      ]
    },
    {
      "cell_type": "code",
      "metadata": {
        "id": "ho6mdmpMb8AG",
        "colab_type": "code",
        "colab": {}
…
